…
        "use_cuda = torch.cuda.is_available()\n",
        "device = torch.device(\"cuda\" if use_cuda else \"cpu\")\n",
        "model = Net().to(device)\n",
        "summary(model, input_size=(1, 28, 28))"
      ],
      "execution_count": 6,
      "outputs": [
        {
          "output_type": "stream",
          "text": [
            "----------------------------------------------------------------\n",
            "        Layer (type)               Output Shape         Param #\n",
            "================================================================\n",
            "            Conv2d-1           [-1, 10, 26, 26]             100\n",
            "              ReLU-2           [-1, 10, 26, 26]               0\n",
            "       BatchNorm2d-3           [-1, 10, 26, 26]              20\n",
            "           Dropout-4           [-1, 10, 26, 26]               0\n",
            "            Conv2d-5           [-1, 20, 24, 24]           1,820\n",
            "              ReLU-6           [-1, 20, 24, 24]               0\n",
            "       BatchNorm2d-7           [-1, 20, 24, 24]              40\n",
            "           Dropout-8           [-1, 20, 24, 24]               0\n",
            "            Conv2d-9           [-1, 16, 24, 24]             336\n",
            "             ReLU-10           [-1, 16, 24, 24]               0\n",
            "        MaxPool2d-11           [-1, 16, 12, 12]               0\n",
            "           Conv2d-12           [-1, 16, 10, 10]           2,320\n",
            "             ReLU-13           [-1, 16, 10, 10]               0\n",
            "      BatchNorm2d-14           [-1, 16, 10, 10]              32\n",
            "          Dropout-15           [-1, 16, 10, 10]               0\n",
            "           Conv2d-16             [-1, 20, 8, 8]           2,900\n",
            "             ReLU-17             [-1, 20, 8, 8]               0\n",
            "      BatchNorm2d-18             [-1, 20, 8, 8]              40\n",
            "          Dropout-19             [-1, 20, 8, 8]               0\n",
            "           Conv2d-20             [-1, 12, 6, 6]           2,172\n",
            "             ReLU-21             [-1, 12, 6, 6]               0\n",
            "      BatchNorm2d-22             [-1, 12, 6, 6]              24\n",
            "          Dropout-23             [-1, 12, 6, 6]               0\n",
            "        AvgPool2d-24             [-1, 12, 1, 1]               0\n",
            "           Conv2d-25             [-1, 10, 1, 1]             130\n",
            "================================================================\n",
            "Total params: 9,934\n",
            "Trainable params: 9,934\n",
            "Non-trainable params: 0\n",
            "----------------------------------------------------------------\n",
            "Input size (MB): 0.00\n",
            "Forward/backward pass size (MB): 0.82\n",
            "Params size (MB): 0.04\n",
…
